lstm_model.pth (torch, 503330 bytes, 10 tensors)

lstm.weight_ih_l0 f4 [400, 7]
0.023383945 0.028230198 0.08239348 0.074514724 -0.056907948 0.08077632 -0.019364642 0.056531124
-0.023987362 -0.09540076 -0.09935592 0.068601005 0.05758387 -0.02634832 0.09592659 0.07511741
0.08412958 0.06600137 -0.03992281 -0.08166346 0.05778053 -0.01989251 -0.0107745435 -0.03600317
0.06890505 0.093112275 -0.019373052 0.087946944 -0.02154966 0.10625474 -0.038345903 0.023933697
0.039067224 0.08912559 -0.043329515 0.015780345 0.034251418 0.06060327 0.07492322 -0.07426546
-0.0484853 0.06636793 0.062367633 0.061020795 -0.041409664 0.0779285 0.0087627685 0.023297837
-0.032164004 -0.054013886 -0.06984244 -0.0059131086 -0.020941375 0.04804411 -0.034309685 0.0441604
-0.020657755 0.016985023 0.027186695 0.10631853 0.05857689 0.08469765 0.07172253 -0.083435394
0.046577495 0.030965673 0.06452655 0.07636851 0.07020361 0.07024162 -0.057002902 -0.053162105
0.036799308 -0.08205524 -0.017264707 -0.01426073 0.052838948 0.010963175 -0.027596217 0.033131473
-0.02989356 0.03886969 -0.075400226 0.0728675 0.05782123 -0.05414092 -0.02967436 -0.072681196
0.011949117 0.065338306 -0.044915807 0.09409569 -0.01630745 -0.043370593 0.00016089488 -0.0637153
0.097008556 0.054614406 -0.025742048 0.07601323 -0.03004048 0.11064943 -0.042746574 0.008633279
0.081353664 0.05515838 0.07381726 -0.01631633 -0.06508187 0.1096527 -0.017052947 0.041221917
0.11253829 0.12504123 -0.014637065 0.09422148 -0.07264649 -0.0154685415 -0.0663754 0.12339664
0.02554487 -0.02248484 -0.0010494138 0.07702382 0.050962366 -0.028902216 -0.015219805 -0.07094403
-0.04596113 -0.09246499 -0.02469941 0.058239132 -0.10512342 -0.05267869 -0.020795567 0.04041917
-0.038540345 0.11591755 -0.06362482 0.082369015 0.010749191 0.11158383 0.07058048 -0.09700263
0.02061612 0.052497413 0.086333364 -0.09347558 0.044292923 -0.08970037 -0.115153424 0.064205706
-0.0056390497 -0.10468075 -0.04419425 0.07080308 -0.048597157 -0.016239326 0.022674879 0.015648624
0.094270445 -0.06683776 0.06566602 -0.053547777 -0.013498695 -0.061271664 0.098014176 -0.03180335
-0.08159965 -0.086735345 -0.07115104 0.045248747 -0.032536313 0.04545017 -0.06868792 0.06520875
-0.006674276 -0.024250507 0.105266035 0.11758006 0.059291918 0.10652017 -0.10630446 0.02912149
0.0076126507 -0.07068776 -0.029052285 0.043166585 0.0081651565 -0.07666117 -0.007570066 0.041473627
-0.029092431 -0.065930605 0.11234237 0.034206495 0.019970477 -0.03752238 0.061096795 0.023926836
0.02699336 0.042681545 -0.014952697 0.018881092 0.01936829 0.02630245 -0.012337677 -0.023370732
-0.015956525 -0.0047111018 -0.0733548 0.07108431 0.07758812 -0.020700147 0.07873396 0.061685123
0.10111985 0.10333389 0.058345474 0.042251207 -0.025568612 -0.072709106 0.11573314 0.035648305
-0.037392408 0.050370675 -0.036150165 0.082428016 -0.01605013 0.03370634 0.08580477 -0.03473072
-0.07964679 0.05579288 0.012269477 -0.044436883 -0.058014773 0.07619761 0.05099307 0.05566955
-0.049170278 -0.090703845 0.08616436 -0.053434215 0.07517497 -0.061091818 -0.072806686 -0.0006422001
-0.047550615 0.087958105 0.024541095 -0.025305066 0.10788777 -0.05818607 -0.08327896 -0.03827984
00000000: b08f bf3c 0443 e73c eabd a83d 2d9b 983d
00000010: 4f18 69bd 0e6e a53d 99a2 9ebc 2e8d 673d
00000020: 2581 c4bc 7961 c3bd 1e7b cbbd af7e 8c3d
00000030: 10dd 6b3d 6fd8 d7bc 2975 c43d 28d7 993d
00000040: 214c ac3d ba2b 873d 1a86 23bd 2c3f a7bd
00000050: 47ab 6c3d 9ef5 a2bc b687 30bc 0f78 13bd
00000060: 171e 8d3d a6b1 be3d 3cb4 9ebc 871d b43d
00000070: ea88 b0bc 169c d93d 9810 1dbd 9a10 c43c
00000080: f404 203d 7a87 b63d 4a7a 31bd c845 813c
00000090: 374b 0c3d 223b 783d 5871 993d 7d18 98bd
000000a0: 8698 46bd e9eb 873d 3475 7f3d f1f0 793d
000000b0: 2e9d 29bd fa98 9f3d b791 0f3c 1bdb be3c
000000c0: 67be 03bd aa3d 5dbd 8e09 8fbd c0c2 c1bb
000000d0: 3f8d abbc e7c9 443d 5088 0cbd 89e1 343d
000000e0: 743a a9bc 2d24 8b3c a2b6 de3c 88bd d93d
000000f0: 52ee 6f3d f675 ad3d 43e3 923d 2de0 aabd
00000100: 0bc8 3e3d b9ab fd3c 7f26 843d 1867 9c3d
00000110: e9c6 8f3d d7da 8f3d e07b 69bd 82c0 59bd
00000120: dfba 163d 940c a8bd b76e 8dbc d6a5 69bc
00000130: a76d 583d e49e 333c 7611 e2bc deb4 073d
00000140: 57e3 f4bc d335 1f3d 6f6b 9abd 8e3b 953d
00000150: f4d5 6c3d dfc2 5dbd a517 f3bc e1d9 94bd
00000160: 3bc6 433c 17d0 853d a3f9 37bd 3eb5 c03d
00000170: 3497 85bc 5da5 31bd e4b5 2839 2b7d 82bd
00000180: 6cac c63d 5bb3 5f3d fde0 d2bc d3ac 9b3d
00000190: 7417 f6bc 2b9c e23d 0817 2fbd 9972 0d3c
000001a0: c09c a63d c1ed 613d 812d 973d d3a9 85bc
000001b0: a549 85bd 9891 e03d 9fb2 8bbc 50d8 283d
000001c0: 7a7a e63d cf0a 003e 4dd0 6fbc 31f7 c03d
000001d0: afc7 94bd c46f 7dbc d3ef 87bd 61b7 fc3d
000001e0: 7a43 d13c 2132 b8bc 7c8c 89ba aabe 9d3d
000001f0: eabd 503d 57c4 ecbc 7d5c 79bc 1b4b 91bd
00000200: bd41 3cbd 495e bdbd 6b56 cabc 288c 6e3d
00000210: f34a d7bd 9cc5 57bd 775b aabc 928e 253d
00000220: 7bdc 1dbd 2e66 ed3d bb4d 82bd 16b1 a83d
00000230: 601d 303c 1086 e43d 808c 903d 51a9 c6bd
00000240: 23e3 a83c 8707 573d 8ccf b03d 2070 bfbd
00000250: 7f6c 353d d4b4 b7bd 8fd5 ebbd 487e 833d
00000260: c7c7 b8bb dc62 d6bd 0805 35bd 3501 913d
00000270: d00d 47bd 5608 85bc abc0 b93c 8b31 803c
00000280: dd10 c13d 3ce2 88bd e87b 863d ea54 5bbd
00000290: a129 5dbc fff7 7abd a8bb c83d 3b44 02bd
000002a0: b81d a7bd 4da2 b1bd a3b7 91bd c056 393d
000002b0: cc44 05bd f529 3a3d 41ac 8cbd 2a8c 853d
000002c0: e3b3 dabb 00a9 c6bc b895 d73d d1cd f03d
000002d0: 15dc 723d 3f27 da3d 27b6 d9bd 3190 ee3c
000002e0: 8b73 f93b bfc4 90bd 0fff edbc 72cf 303d
000002f0: 26c7 053c 8800 9dbd 510e f8bb 40e0 293d
00000300: 4053 eebc a006 87bd c213 e63d 1c1c 0c3d
00000310: 2099 a33c 11b1 19bd a240 7a3d 3602 c43c
00000320: 2e21 dd3c d8d2 2e3d 28fc 74bc 85ac 9a3c
00000330: 40aa 9e3c 3c78 d73c f823 4abc fa73 bfbc
00000340: 42b7 82bc 965f 9abb 0b3b 96bd a794 913d
00000350: 85e6 9e3d 5b93 a9bc 453f a13d 8aa9 7c3d
00000360: ed17 cf3d b8a0 d33d aafb 6e3d 9a0f 2d3d
00000370: 4475 d1bc 83e8 94bd 7f05 ed3d f503 123d
00000380: c828 19bd 7b51 4e3d 3212 14bd 05d0 a83d
00000390: 907b 83bc a90f 0a3d 69ba af3d cd41 0ebd
000003a0: db1d a3bd 1387 643d eb05 493c 7303 36bd
000003b0: e6a0 6dbd 7e0d 9c3d 1cde 503d c105 643d
000003c0: c666 49bd f0c2 b9bd f176 b03d d6dd 5abd
000003d0: 56f5 993d 6a3b 7abd ac1b 95bd 5259 28ba
000003e0: 6fc4 42bd 6123 b43d 680a c93c 924c cfbc
000003f0: 43f4 dc3d 8454 6ebd 298e aabd 52cb 1cbd

lstm.weight_hh_l0 f4 [400, 100]
-0.05416178 -0.09628125 -0.04276731 -0.012762388 -0.07460893 0.07773652 0.008969099 0.022651011
-0.025615484 0.030935602 0.0034066162 -0.037667193 -0.06306371 -0.085140094 0.07823744 0.05033032
-0.08164424 -0.08641125 0.0852225 -0.067818545 -0.042205837 0.015391194 -0.06188108 0.018239053
-0.016854431 -0.045697242 -0.008613589 0.014421731 0.0574471 -0.0018681345 -0.04539951 0.041143067
0.049883876 -0.070544034 0.035320695 -0.04087769 -0.007936945 0.023249695 0.024221815 0.04948429
0.080496974 0.058795664 -0.047952123 0.08122158 -0.092032015 -0.017632347 0.0884136 -0.07587166
0.031808447 -0.028120672 -0.06918984 0.08595848 0.036415596 0.085482486 0.019916506 -0.003668987
0.015836172 -0.022598611 -0.08062207 0.054948874 0.0133841755 -0.030578297 -0.024181865 0.06510508
-0.00823931 -0.03484467 0.038409736 0.08587525 -0.011024283 0.013099785 -0.065444514 0.022554638
0.049162123 -0.07847897 0.0674837 0.02151993 0.04359003 -0.02128778 -0.099291444 -0.019068796
-0.085244186 0.0042372374 0.00998661 -0.08675467 0.025189178 0.08300492 -0.07682524 0.052546985
0.07797336 0.004020975 0.08647815 -0.07778799 -0.04662796 0.016831564 0.044177342 0.06905869
0.08036599 0.014640351 -0.061941262 -0.013587726 -0.013766408 0.038732998 -0.07713859 -0.015266416
-0.0008797521 -0.074555576 0.046582703 -0.08026286 0.078079596 -0.06384238 0.043167267 -0.050213158
-0.024208771 -0.073367044 0.022795364 -0.031863242 0.032634698 9.754798e-05 -0.08566619 0.07009387
0.02440414 -0.042066544 -0.023105724 -0.09654421 -0.07560948 0.05137713 -0.07373395 0.0851824
0.014675072 0.015661443 0.094086975 -0.05488348 0.04057425 -0.0152630815 0.014817838 -0.015485791
-0.004103046 0.06406505 -0.02084619 -0.030655148 -0.10270334 0.07839822 0.055550613 -0.0077790497
0.061129075 -0.014994927 -0.03063144 0.06997101 -0.006874307 0.017075984 0.024215257 0.047224604
0.024706544 -0.029890683 0.05612066 -0.04835402 -0.116896845 0.011684188 0.030844962 -0.08221908
0.08182283 0.052818038 -0.010343182 -0.06835564 -0.006596418 0.0021991339 -0.031477526 -0.01959455
-0.04617569 0.04138178 0.0221816 -0.07874215 -0.0019949547 0.08336024 -0.028114008 0.06314873
-0.036133483 0.06980053 -0.032160487 -0.026593674 -0.04860316 -0.023056006 0.04653625 0.086424954
-0.07453198 0.05618304 -0.07569715 -0.049199313 0.0041972976 -0.07591151 0.10664125 -0.017177926
0.009250649 -0.091447875 -0.026922595 0.030098498 -0.08582352 0.008684724 -0.006585097 0.03331021
0.089081146 -0.023348222 0.06099227 -0.06865661 0.02738252 0.035965517 -0.009854322 0.0059369854
-0.051021222 0.005333396 -0.093494006 -0.03643526 -0.0077230274 0.027086996 0.03471479 0.044392087
0.0726482 0.038150776 -0.072315924 -0.061237816 -0.06083185 0.077488646 0.04382009 -0.0820264
-0.06655944 -0.0059867217 -0.01697912 0.042448107 0.048756912 0.053928956 0.022728147 0.083122574
0.0883066 -0.045603048 -0.040135004 0.015060472 0.014632944 -0.08098889 0.100965776 0.048665628
-0.0043223724 0.102649726 -0.009914841 0.06276117 -0.028939323 -0.06651128 -0.049930494 -0.043979533
0.025785625 -0.109473936 0.08359853 -0.01340611 -0.0839426 -0.052564982 0.0053042467 0.029742112
00000000: bed8 5dbd 1b2f c5bd c62c 2fbd 5619 51bc
00000010: 91cc 98bd 5334 9f3d 21f3 123c 9d8e b93c
00000020: 90d7 d1bc a96c fd3c 8941 5f3b ea48 1abd
00000030: 8c27 81bd ee5d aebd f33a a03d 2a27 4e3d
00000040: 1835 a7bd 62f8 b0bd 2289 ae3d 73e4 8abd
00000050: 07e0 2cbd 592b 7c3c 0477 7dbd 116a 953c
00000060: 4e12 8abc 082d 3bbd 0320 0dbc 2049 6c3c
00000070: a64d 6b3d 31dc f4ba d6f4 39bd a285 283d
00000080: 0953 4c3d 6479 90bd 6fac 103d 5d6f 27bd
00000090: f609 02bc 2576 be3c d46c c63c 0ab0 4a3d
000000a0: 99db a43d b9d3 703d 7269 44bd 8057 a63d
000000b0: 487b bcbd b671 90bc 3112 b53d 9a62 9bbd
000000c0: 9349 023d 535d e6bc 67b3 8dbd 000b b03d
000000d0: 8528 153d 7111 af3d f127 a33c 6373 70bb
000000e0: dcba 813c b920 b9bc 2f1d a5bd 1212 613d
000000f0: 4d49 5b3c 567f fabc 0c19 c6bc d055 853d
00000100: 2cfe 06bc 49b9 0ebd 8753 1d3d 5ddf af3d
00000110: 329f 34bc 7ba0 563c c607 86bd 81c4 b83c
00000120: 395e 493d 95b9 a0bd e534 8a3d 904a b03c
00000130: 768b 323d b663 aebc 5059 cbbd 2a36 9cbc
00000140: 8194 aebd 86d8 8a3b e19e 233c 6fac b1bd
00000150: 8959 ce3c 7cfe a93d 8d56 9dbd 823b 573d
00000160: 7fb0 9f3d 62c2 833b 751b b13d 4f4f 9fbd
00000170: f6fc 3ebd 59e2 893c 4df3 343d a46e 8d3d
00000180: ed96 a43d 15de 6f3c 1fb6 7dbd 0e9f 5ebc
00000190: 808c 61bc 7ea6 1e3d d6fa 9dbd fd1f 7abc
000001a0: 2a9f 66ba 98b0 98bd 81cd 3e3d db60 a4bd
000001b0: 32e8 9f3d cbbf 82bd 29d0 303d 50ac 4dbd
000001c0: 7951 c6bc 7641 96bd 58bd ba3c 0883 02bd
000001d0: f6ab 053d ac92 cc38 c171 afbd 608d 8f3d
000001e0: 31eb c73c f84d 2cbd 3748 bdbc f9b8 c5bd
000001f0: 25d9 9abd d370 523d d301 97bd 1c74 ae3d
00000200: b76f 703c 6d4c 803c acb0 c03d 80cd 60bd
00000210: 2f31 263d 0112 7abc 84c6 723c 1db8 7dbc
00000220: d872 86bb 8934 833d a1c5 aabc 8120 fbbc
00000230: 2156 d2bd 3f8f a03d 0a89 633d 66e7 febb
00000240: 7b62 7a3d 48ad 75bc c9ee fabc f64c 8f3d
00000250: de41 e1bb efe2 8b3c 135f c63c 966e 413d
00000260: 6165 ca3c 4edd f4bc c7de 653d dd0e 46bd
00000270: 9d67 efbd 096f 3f3c 93ae fc3c 7a62 a8bd
00000280: ba92 a73d ba57 583d 7376 29bc 0bfe 8bbd
00000290: c426 d8bb 581f 103b 94ee 00bd c084 a0bc
000002a0: b822 3dbd f17f 293d 30b6 b53c 9043 a1bd
000002b0: c9bd 02bb c6b8 aa3d 594f e6bc 1f54 813d
000002c0: b400 14bd 95f3 8e3d b7ba 03bd fada d9bc
000002d0: 1b14 47bd f3df bcbc cb9c 3e3d 91ff b03d
000002e0: 39a4 98bd 3020 663d 1b07 9bbd 3885 49bd
000002f0: 7c89 893b 7e77 9bbd ba66 da3d b9b8 8cbc
00000300: 0990 173c 0649 bbbd c68c dcbc 2091 f63c
00000310: 3ec4 afbd 5f4a 0e3c ccc7 d7bb 4970 083d
00000320: 2d70 b63d c544 bfbc 08d3 793d d69b 8cbd
00000330: 4e51 e03c 9450 133d 0674 21bc 0b8b c23b
00000340: a1fb 50bd c5c3 ae3b c979 bfbd 243d 15bd
00000350: 7311 fdbb 8ce5 dd3c 1831 0e3d 7ad4 353d
00000360: 94c8 943d fd43 1c3d 5f1a 94bd 81d4 7abd
00000370: d12a 79bd 5eb2 9e3d b27c 333d 75fd a7bd
00000380: 5150 88bd 432c c4bb cc17 8bbc 11de 2d3d
00000390: 54b5 473d 9ce4 5c3d 6130 ba3c 2b3c aa3d
000003a0: 17da b43d 43ca 3abd 9a64 24bd 33c0 763c
000003b0: 04bf 6f3c 81dd a5bd 25c7 ce3d 9c55 473d
000003c0: b0a2 8dbb 053a d23d db71 22bc ee88 803d
000003d0: 2912 edbc 1137 88bd eb83 4cbd e223 34bd
000003e0: 603c d33c df33 e0bd b535 ab3d 4da5 5bbc
000003f0: 19ea abbd 614e 57bd 3fcf ad3b bba5 f33c

lstm.bias_ih_l0 f4 [400]
-0.0010993681 0.017139286 -0.10584548 -0.0819514 0.10341348 7.47579e-05 0.09599758 0.031658176
-0.03726432 -0.042230066 0.06273721 0.032030053 0.015249276 -0.08833537 0.10870818 0.032920804
0.041129526 0.025762366 -0.028442057 0.09639105 0.068746 -0.03929146 0.03676713 -0.08759299
0.046738803 0.005427608 0.009858742 0.0051064976 0.001498946 0.10030395 -0.01037973 -0.09161449
-0.07218106 0.045359217 -0.0034106078 -0.09018355 -0.046560735 -0.06166386 0.045154188 0.05983375
0.04084782 -0.06539893 0.037107114 0.0014568554 0.076924466 0.101900354 -0.1128536 0.014635761
-0.04934295 -0.054658517 -0.034502648 -0.077352434 0.004577246 -0.07543159 -0.049801745 -0.006676448
0.022968343 0.048965238 -0.05637101 -0.014996024 -0.018882258 -0.026963472 0.10379025 -0.036940802
-0.01929162 0.013643251 0.05950173 0.043367315 0.016877174 0.094575986 0.0136338575 -0.053401645
-0.021532027 -0.088230275 -0.064922415 -0.08514219 -0.027606828 -0.07769835 0.07608942 -0.047966514
0.006573311 0.030266652 -0.07971762 -0.04403281 -0.045193657 -0.022116218 0.07576384 -0.001304838
0.10153982 -0.07611765 0.03729601 -0.07783908 0.013394557 0.06941589 -0.09057703 0.0076564923
-0.041495774 -0.031405475 -0.027520591 -0.031345244 0.0896413 0.07796644 -0.003705844 0.09646462
0.024112964 0.11187929 0.07454191 0.045490887 0.087535255 0.06906022 -0.0373424 -0.041723516
-0.039264668 0.007335508 -0.042541515 -0.050130367 -0.000618582 -0.008188176 0.07351246 0.073845044
0.018183768 -0.06731018 0.09155388 0.020699056 -0.0061424817 0.033893052 -0.04979477 -0.07446881
-0.028854704 -0.07049136 0.09118185 0.07360496 0.068890765 0.023663212 0.04160655 -0.012866081
0.08374851 0.0066854996 0.0020270518 0.065753534 -0.043437593 0.07035197 -0.075524524 -0.00018753063
0.03927941 0.03195909 -0.08754062 0.026945444 -0.024495875 0.105504505 0.0377906 0.049388036
-0.039093763 0.021014255 0.11932588 -0.07437811 -0.083590925 -0.02804836 -0.04107818 0.083446495
0.012924256 0.07059737 0.08991 -0.00037575417 -0.034103505 -0.013563108 -0.1024459 -0.040284127
-0.018180853 0.094773725 -0.0072350577 0.04581366 0.047811847 -0.025623467 -0.041498013 -0.018697534
0.0025561766 0.0022670273 0.01186005 0.028475076 0.0871018 -0.09343135 -0.08385323 -0.046792634
0.01924217 -0.0729878 0.051779136 -0.056684323 -0.001345947 0.02026212 -0.088232376 0.03379694
0.044738114 0.07609682 -0.09319801 0.076076664 0.025448265 -0.033645596 0.086737126 0.017135454
-0.067308 0.08640485 0.0789535 -0.01896979 -0.0827811 0.100063205 0.06443035 -0.06301837
-0.08724131 -0.07101315 0.046830818 0.040261824 0.100318536 0.09821467 -0.0793365 0.09665367
0.0067651854 0.027845496 0.030427555 0.0027486938 0.0384772 0.055351626 -0.0076793926 0.016884577
0.075201534 0.030529058 -0.03209004 0.06649171 -0.09213917 0.043786112 0.08297095 -0.08450411
-0.10271642 0.08810519 -0.048586376 0.027327096 -0.077204295 -0.022371633 0.0031824934 0.052426446
-0.069768086 0.009359542 0.03222729 0.07466186 -0.036009472 0.088758305 -0.0060846177 -0.0044559157
0.061410837 -0.034233052 0.051195133 0.08267462 -0.015866697 -0.035956383 -0.0775998 -0.0057325624
00000000: ac18 90ba b067 8c3c 84c5 d8bd 23d6 a7bd
00000010: 72ca d33d 58c7 9c38 619a c43d 01ac 013d
00000020: 79a2 18bd 6ff9 2cbd 5e7c 803d f231 033d
00000030: 19d8 793c 2de9 b4bd 65a2 de3d f7d7 063d
00000040: 6f77 283d 990b d33c 51ff e8bc ac68 c53d
00000050: b4ca 8c3d 15f0 20bd 2199 163d f463 b3bd
00000060: 3071 3f3d 13da b13b 9086 213c 6854 a73b
00000070: 4878 c43a 286c cd3d be0f 2abc 61a0 bbbd
00000080: aad3 93bd 96ca 393d 8184 5fbb 27b2 b8bd
00000090: 78b6 3ebd 3e93 7cbd 99f3 383d 3c14 753d
000000a0: 0b50 273d e0ef 85bd a1fd 173d f5f3 be3a
000000b0: 938a 9d3d 22b1 d03d ca1f e7bd d5ca 6f3c
000000c0: d51b 4abd 9ce1 5fbd a652 0dbd f46a 9ebd
000000d0: b9fc 953b e17b 9abd eafc 4bbd 1bc6 dabb
000000e0: 1b28 bc3c c68f 483d 4ae5 66bd e2b1 75bc
000000f0: f7ae 9abc 80e2 dcbc fc8f d43d 3d4f 17bd
00000100: 7609 9ebc f187 5f3c 16b8 733d eda1 313d
00000110: 0042 8a3c 0eb1 c13d 8b60 5f3c afbb 5abd
00000120: ef63 b0bc 13b2 b4bd 0bf6 84bd 075f aebd
00000130: b727 e2bc 5020 9fbd c5d4 9b3d 8978 44bd
00000140: ee64 d73b c5f1 f73c fe42 a3bd bf5b 34bd
00000150: fc1c 39bd 122d b5bc 122a 9b3d 1907 abba
00000160: 1cf4 cf3d 92e3 9bbd b3c3 183d 186a 9fbd
00000170: d874 5b3c eb29 8e3d 7380 b9bd 50e3 fa3b
00000180: 79f7 29bd 07a3 00bd dd72 e1bc df63 00bd
00000190: dc95 b73d deac 9f3d bfdd 72bb 3e8f c53d
000001a0: 8d88 c53c f820 e53d 6ea9 983d a754 3a3d
000001b0: af45 b33d 726f 8d3d 58f4 18bd 47e6 2abd
000001c0: fdd3 20bd b35e f03b 0340 2ebd 8055 4dbd
000001d0: 5628 22ba b327 06bc b38d 963d 123c 973d
000001e0: 20f6 943c ebd9 89bd 9a80 bb3d 1191 a93c
000001f0: df46 c9bb 71d3 0a3d 9af5 4bbd 1a83 98bd
00000200: b360 ecbc c65d 90bd 8dbd ba3d 33be 963d
00000210: 9a16 8d3d 5ad9 c13c a16b 2a3d 41cc 52bc
00000220: 5784 ab3d 0912 db3b 49d8 043b caa9 863d
00000230: 9eeb 31bd b214 903d 9aac 9abd dfa3 44b9
00000240: 72e3 203d 89e7 023d 7f48 b3bd b1bc dc3c
00000250: 93ab c8bc bf12 d83d 51ca 1a3d 1c4b 4a3d
00000260: c820 20bd 1626 ac3c 2161 f43d 8d53 98bd
00000270: b831 abbd adc5 e5bc 9841 28bd ffe5 aa3d
00000280: 42c0 533c 5b95 903d bc22 b83d df00 c5b9
00000290: 1eb0 0bbd cc37 5ebc 28cf d1bd f800 25bd
000002a0: 03f0 94bc ba18 c23d 1014 edbb 1ba7 3b3d
000002b0: 5bd6 433d 4ee8 d1bc d2f9 29bd 922b 99bc
000002c0: 8785 273b 6892 143b a850 423c 9044 e93c
000002d0: 6e62 b23d f058 bfbd 3ebb abbd a2a9 3fbd
000002e0: c1a1 9d3c a17a 95bd 5c16 543d d22d 68bd
000002f0: 7d6a b0ba bffc a53c 2db3 b4bd a96e 0a3d
00000300: 503f 373d a6d8 9b3d 99de bebd 15ce 9b3d
00000310: e178 d03c f7cf 09bd 3ca3 b13d a75f 8c3c
00000320: c7d8 89bd 07f5 b03d 5fb2 a13d 8866 9bbc
00000330: 2389 a9bd f0ed cc3d 0ff4 833d c60f 81bd
00000340: 92ab b2bd 586f 91bd acd1 3f3d 95e9 243d
00000350: ce73 cd3d c624 c93d 2d7b a2bd 5cf2 c53d
00000360: 7dae dd3b 3d1c e43c 3543 f93c 6e23 343b
00000370: 459a 1d3d 63b8 623d 6aa3 fbbb 8651 8a3c
00000380: 4303 9a3d 1318 fa3c d970 03bd ce2c 883d
00000390: 76b3 bcbd 1159 333d acec a93d 7e10 adbd
000003a0: fd5c d2bd 7e70 b43d 8202 47bd 13dd df3c
000003b0: 491d 9ebd b744 b7bc 6191 503b 1dbd 563d
000003c0: 92e2 8ebd c458 193c c300 043d 51e8 983d
000003d0: ab7e 13bd eac6 b53d 7961 c7bb ee02 92bb
000003e0: ee89 7b3d f537 0cbd fdb1 513d 5051 a93d
000003f0: e0fa 81bc 0047 13bd a5ec 9ebd 38d8 bbbb

lstm.bias_hh_l0 f4 [400]
0.014100233 -0.050306354 0.03933261 0.06739047 -0.012487812 -0.04671107 -0.091378056 0.014197436
0.02527612 0.037127692 0.046932902 0.057284676 -0.0013479958 -0.07965318 0.032054808 -0.023792265
-0.06981621 -0.08765363 0.08059061 0.056934692 0.018690402 -0.017785508 -0.081386045 0.092381135
-0.044643562 -0.03507786 -0.09746879 0.015049105 0.081392944 0.059278075 -0.047303334 -0.0017764749
0.09473322 0.098229684 0.08379148 -0.07679252 -0.04167128 0.079158574 0.0070070145 0.04085986
0.07556897 -0.025588462 -0.06321887 -0.011719385 0.04807963 0.12131634 0.05340818 0.092263564
-0.0010312386 0.08093247 0.042045172 0.06389466 -0.0683001 -0.05387354 -0.016177978 -0.078092024
-0.07619902 0.05491335 -0.061317656 0.05136373 0.031003982 0.04708369 -0.056911886 0.03048893
-0.026672851 -0.077790596 0.07627684 0.015952164 -0.06296443 -0.0804618 0.0148126865 -0.06885264
-0.10063737 0.04623545 0.0015052063 -0.03238538 -0.037424576 -0.0093189925 -0.00038442403 -0.091338135
0.08960344 -0.09266528 0.05515011 0.102569826 -0.06212196 0.0055491147 0.027669063 0.018228201
0.08560194 0.07755671 -0.015471272 0.06514676 0.02022733 0.05306491 0.024451794 -0.08067226
0.060804892 -0.06054322 -0.05844278 -0.042517267 -0.014271535 0.06161748 0.03680492 0.10070869
-0.029882964 -0.04673404 -0.015211696 0.026410209 -0.06641107 -0.09431631 0.010592706 -0.08789578
0.06575976 0.050000213 -0.071799 -0.064517096 -0.026072307 0.06097856 -0.024150234 -0.064897925
0.012445089 0.042181525 0.032160487 0.08333898 -0.055174153 0.05010178 0.042398885 0.050273728
-0.019703165 0.012594518 0.10862198 0.1025492 -0.008288489 0.09221801 0.04896802 0.0057330932
0.08495513 0.041821018 0.06129076 -0.051880598 -0.07458182 -0.025945025 0.06024407 -0.051294032
0.097965285 0.07498012 0.063335724 0.06792984 0.07717623 -0.04661724 0.033462886 0.089289844
-0.0518413 0.06225169 -0.014088386 0.0904501 -0.045391545 -0.06781403 0.018841946 0.041522197
-0.092195064 -0.061880656 0.0044374983 0.041592583 0.02773941 -0.019320233 -0.013940377 -0.03921096
-0.029468851 0.09932411 0.026176699 0.05702897 -0.009267338 -0.010874866 0.06499786 0.04453267
-0.070763834 0.01808944 0.040415414 -0.0755041 0.05184133 -0.030669596 0.020809954 0.08930576
0.034359522 -0.08882882 0.08783478 -0.0045187445 0.07575089 0.020586712 0.07334008 0.029829957
-0.090759315 0.072972104 0.027572159 0.07596307 -0.047766957 0.027984377 -0.011042816 0.0010761982
-0.09790199 0.014870632 0.039341584 -0.063819446 -0.09699138 -0.02652597 0.0034623956 0.019241193
0.026239736 -0.08098708 0.049265966 0.06793549 0.056088433 0.020016614 -0.016129607 0.046686545
0.034474924 -0.07987992 -0.07308552 -0.10132307 0.096599534 -0.011641243 -0.0069802525 0.087243915
-0.015266911 0.037811927 0.0054353904 -0.06385934 -0.04445919 -0.054872446 -0.062281672 0.090158194
-0.06821597 -0.09560904 -0.056810327 0.030757451 0.08435941 0.101006165 -0.014886363 0.06792959
0.0990535 -0.058399145 0.040162593 0.070789196 -0.035042685 -0.022267086 -0.048473064 0.056916695
-0.07167791 0.0048829345 -0.00985992 0.059198443 -0.0696426 0.0248097 0.09684672 0.008061539
00000000: aa04 673c 090e 4ebd 3b1b 213d 0404 8a3d
00000010: ae99 4cbc 1b54 3fbd 6b24 bbbd 5d9c 683c
00000020: de0f cf3c 3513 183d b73c 403d 56a3 6a3d
00000030: 3caf b0ba 3521 a3bd e74b 033d ffe7 c2bc
00000040: cdfb 8ebd bf83 b3bd b10c a53d 5a34 693d
00000050: 9d1c 993c eab2 91bc baad a6bd 5232 bd3d
00000060: 2bdc 36bd cdad 0fbd b89d c7bd 8590 763c
00000070: 58b1 a63d 91cd 723d 24c1 41bd 9bd8 e8ba
00000080: 7e03 c23d a52c c93d de9a ab3d 6645 9dbd
00000090: 81af 2abd e41d a23d 199b e53b ab5c 273d
000000a0: e7c3 9a3d e59e d1bc e578 81bd aa02 40bc
000000b0: 25ef 443d b474 f83d 89c2 5a3d aef4 bc3d
000000c0: a02a 87ba ecbf a53d 8f37 2c3d 34db 823d
000000d0: ece0 8bbd 80aa 5cbd ae87 84bc b6ee 9fbd
000000e0: 3b0e 9cbd d2ec 603d 3928 7bbd c662 523d
000000f0: 10fc fd3c d4da 403d 701c 69bd ecc3 f93c
00000100: 0681 dabc ad50 9fbd 0837 9c3d 1dae 823c
00000110: 7ff3 80bd 28c9 a4bd e9b0 723c 9d02 8dbd
00000120: f71a cebd 6261 3d3d 584a c53a 88a6 04bd
00000130: 834a 19bd b0ae 18bc 858c c9b9 7d0f bbbd
00000140: 0282 b73d 4bc7 bdbd 15e5 613d 2110 d23d
00000150: 9973 7ebd 59d5 b53b 3baa e23c 4f53 953c
00000160: 1250 af3d 0dd6 9e3d 387b 7dbc aa6b 853d
00000170: c9b3 a53c 975a 593d 214f c83c 7f37 a5bd
00000180: 8d0e 793d 2bfc 77bd b261 6fbd 9626 2ebd
00000190: 28d3 69bc 9c62 7c3d c1c0 163d 5c40 ce3d
000001a0: 1ecd f4bc 316c 3fbd 7a3a 79bc 395a d83c
000001b0: 8702 88bd e928 c1bd 078d 2d3c b402 b4bd
000001c0: 0ead 863d 06cd 4c3d 5b0b 93bd 8a21 84bd
000001d0: 9795 d5bc a8c4 793d b6d6 c5bc 34e9 84bd
000001e0: 7de6 4b3c 89c6 2c3d b7ba 033d a1ad aa3d
000001f0: 4bfe 61bd 8637 4d3d 74aa 2d3d d3eb 4d3d
00000200: 8868 a1bc 3d59 4e3c 3375 de3d 5105 d23d
00000210: 71cc 07bc ccdc bc3d b192 483d acdc bb3b
00000220: f5fc ad3d 844c 2b3d 050c 7b3d c080 54bd
00000230: 5abe 98bd a98a d4bc 7cc2 763d b119 52bd
00000240: 06a2 c83d 2d8f 993d 29b6 813d cd1e 8b3d
00000250: 920e 9e3d b8f1 3ebd 6110 093d 98dd b63d
00000260: 8b57 54bd a1fb 7e3d f9d2 66bc e73d b93d
00000270: 7cec 39bd 15e2 8abd 6d5a 9a3c 2e13 2a3d
00000280: c4d0 bcbd 9276 7dbd 6f68 913b fc5c 2a3d
00000290: c23d e33c 7745 9ebc 2e66 64bc ac9b 20bd
000002a0: a968 f1bc 706a cb3d 8470 d63c 3697 693d
000002b0: 08d6 17bc 7e2c 32bc 991d 853d e467 363d
000002c0: a1ec 90bd 4e30 943c a28a 253d e5a1 9abd
000002d0: 9357 543d ce3e fbbc a379 aa3c f0e5 b63d
000002e0: 92bc 0c3d e2eb b5bd b9e2 b33d fa11 94bb
000002f0: 4823 9b3d 77a5 a83c 5333 963d f45d f43c
00000300: 05e0 b9bd 6672 953d 02df e13c 8792 9b3d
00000310: 49a7 43bd 7e3f e53c edec 34bc 380f 8d3a
00000320: d780 c8bd f4a3 733c a424 213d c5b3 82bd
00000330: 6ba3 c6bd fe4c d9bc 5ce9 623b b59f 9d3c
00000340: b7f4 d63c 8edc a5bd 1ccb 493d c321 8b3d
00000350: fcbc 653d e2f9 a33c 3d22 84bc 643a 3f3d
00000360: 9435 0d3d 1598 a3bd dcad 95bd 7882 cfbd
00000370: fad5 c53d e9ba 3ebc 9aba e4bb f0ac b23d
00000380: 1122 7abc aee0 1a3d 5c1b b23b b0c8 82bd
00000390: d71a 36bd eec1 60bd 111b 7fbd dca4 b83d
000003a0: d1b4 8bbd acce c3bd f2b1 68bd 0df7 fb3c
000003b0: a0c4 ac3d 52dc ce3d efe5 73bc ab1e 8b3d
000003c0: 90dc ca3d f133 6fbd 8881 243d edf9 903d
000003d0: eb88 0fbd 7769 b6bc b18b 46bd 7b21 693d
000003e0: decb 92bd 0601 a03b 808b 21bc 117a 723d
000003f0: c8a0 8ebd b63d cb3c 9357 c63d 8c14 043c

lstm.weight_ih_l1 f4 [400, 100]
0.06030571 0.029200193 0.082540095 -0.022872323 -0.022067232 0.06403574 -0.021637717 -0.040025596
-0.053089112 -0.036057148 0.05862549 0.08636278 0.083395995 -0.039533146 0.013436474 -0.026844034
-0.07828098 -0.07615951 -0.08785894 0.009448371 -0.055510372 -0.023745775 -0.012969959 0.022290232
-0.047145296 -0.02173419 0.027522786 0.056689437 0.10931229 -0.07592884 0.008684065 0.008112262
0.08135538 -0.096941754 -0.07934978 0.075424984 -0.008471988 0.0016700544 -0.021558536 -0.01296924
0.0499044 -0.0032620071 0.051503893 -0.05309936 0.06014537 -0.04771272 -0.06402993 0.08073813
-0.0685435 -0.012435629 -0.0075619486 -0.026310194 0.01506866 0.080851726 -0.08736081 0.09290989
0.050487716 0.07153777 0.034035902 -0.09354368 0.041936968 -0.05593903 0.044277597 -0.02704655
-0.035564054 -0.019117186 0.06730759 0.09685934 0.072471015 -0.056613028 0.023483304 -0.083820544
0.046271615 -0.0129406545 -0.038959187 0.03285209 -0.055901945 0.07325967 -0.020005377 -0.058035977
0.08684566 0.05714062 0.110771924 -0.0643433 0.02521045 -0.066471204 -0.005998342 0.08783116
-0.08644988 0.053358536 -0.070608824 0.044979855 0.091954865 0.04182038 -0.031875186 0.036571715
0.048642464 -0.023242665 -0.022315918 0.09304505 0.08284467 0.031554695 0.10528732 0.06672534
-0.016527502 0.030393325 -0.07515298 0.031139558 0.040968496 -0.0984861 -0.08909327 0.026783383
-0.0750266 -0.024292305 -0.055620264 -0.0361789 0.060177244 -0.0023342706 0.0770823 -0.0833018
0.069563724 -0.05353466 0.09208498 0.04691385 -0.10920752 -0.055717465 -0.07407758 0.06608182
0.031081043 -0.0668765 -0.09373805 0.042367496 0.050946135 0.094479166 -0.070145324 0.023518361
0.013206598 -0.0076009417 -0.067645885 0.025518963 0.03297146 0.07270356 -0.012673898 -0.0075614094
-0.09677415 -0.09285555 -0.054116037 0.07646388 -0.0856458 -0.1032574 0.07692164 -0.019922484
0.07748841 0.080104485 0.0881176 0.10302953 0.101659924 -0.009238576 0.024504082 -0.023825143
-0.0055122455 0.06136492 0.049170468 -0.043489225 0.006568412 0.056710474 0.04076427 0.058125164
0.0833372 0.06512891 0.08919542 0.047268562 -0.06089705 -0.065394 -0.003070115 -0.04833106
0.018451367 0.06715505 -0.011116045 0.020216405 -0.033676814 -0.08715907 -0.06493128 0.040045075
-0.062305134 0.020390479 0.05431714 -0.11804078 -0.0058264583 0.010111243 -0.08328162 -0.09042919
0.032725472 -0.01864156 -0.08983315 -0.016620725 0.050793123 0.09977395 -0.09617844 0.019280007
-0.05845597 -0.08463891 0.023777312 0.00038415924 -0.02946567 -0.009722361 -0.032035455 0.06410748
0.023421606 0.09417285 0.06647632 0.042903062 0.05749201 0.07969901 -0.06156879 0.07641957
0.003867695 0.048182324 -0.0479192 0.08614665 0.031151397 0.061139088 0.002667868 0.015512536
0.0077152383 -0.06972187 0.09233545 0.032383353 0.0784265 0.03426955 -0.02470488 -0.08266795
-0.053980265 0.067498036 0.043164134 -0.105565175 -0.021705378 -0.01813812 0.09958873 0.0067514516
-0.07843114 -0.048372027 -0.07509538 0.01639478 -0.058619585 0.049983077 -0.057461184 0.052752014
-0.051397614 0.027656488 -0.020815369 0.00533544 -0.03471591 0.022828138 -0.03625102 -0.026587455
00000000: 1f03 773d 3e35 ef3c c80a a93d bd5e bbbc
00000010: 57c6 b4bc 2c25 833d 9541 b1bc e1f1 23bd
00000020: f873 59bd a9b0 13bd 4821 703d f8de b03d
00000030: 85cb aa3d 82ed 21bd a824 5c3c 05e8 dbbc
00000040: c751 a0bd 84f9 9bbd 63ef b3bd 57cd 1a3c
00000050: d85e 63bd 8086 c2bc f37f 54bc 019a b63c
00000060: 6d1b 41bd e60b b2bc 7777 e13c 2f33 683d
00000070: 1fdf df3d 9480 9bbd 9c47 0e3c 4be9 043c
00000080: a69d a63d 6689 c6bd 2382 a2bd 6a78 9a3d
00000090: 18ce 0abc bae5 da3a 879b b0bc ef7c 54bc
000000a0: 8e68 4c3d 66c7 55bb bff5 523d b77e 59bd
000000b0: fe5a 763d 6a6e 43bd 2022 83bd 085a a53d
000000c0: 8960 8cbd cfbe 4bbc 39ca f7bb 7a88 d7bc
000000d0: 8ae2 763c 9795 a53d 39ea b2bd 8a47 be3d
000000e0: 35cc 4e3d 6582 923d 3b69 0b3d d493 bfbd
000000f0: 19c6 2b3d 5320 65bd 6d5c 353d ba90 ddbc
00000100: 9dab 11bd a59b 9cbc 90d8 893d 315e c63d
00000110: af6b 943d 10e3 67bd 0f60 c03c 1baa abbd
00000120: 4e87 3d3d 0a05 54bc ab93 1fbd ea8f 063d
00000130: 70f9 64bd 2a09 963d 51e2 a3bc 22b7 6dbd
00000140: 23dc b13d 480c 6a3d 64dc e23d 6cc6 83bd
00000150: 2586 ce3c 0e22 88bd bd8d c4bb d3e0 b33d
00000160: a20c b1bd 7b8e 5a3d 5c9b 90bd cc3c 383d
00000170: d552 bc3d d94b 2b3d 8e8f 02bd 39cc 153d
00000180: 523d 473d 6767 bebc dfcf b6bc 678e be3d
00000190: 77aa a93d 7f3f 013d e1a0 d73d 4ca7 883d
000001a0: af64 87bc 6cfb f83c cee9 99bd 6318 ff3c
000001b0: 95ce 273d 15b3 c9bd 8876 b6bd d368 db3c
000001c0: 8ca7 99bd a800 c7bc 13d2 63bd 5430 14bd
000001d0: 6a7c 763d 90fa 18bb 53dd 9d3d 229a aabd
000001e0: 6d77 8e3d 2947 5bbd 0d97 bc3d bd28 403d
000001f0: 31a8 dfbd ff37 64bd fcb5 97bd e855 873d
00000200: ac9d fe3c 8cf6 88bd bcf9 bfbd 8a89 2d3d
00000210: e5ac 503d 4b7e c13d 5aa8 8fbd 94a9 c03c
00000220: 7d60 583c 5211 f9bb ed89 8abd 250d d13c
00000230: 150d 073d 9be5 943d 2ea6 4fbc b3c5 f7bb
00000240: 8731 c6bd 0d2b bebd c7a8 5dbd 1899 9c3d
00000250: 1167 afbd 9e78 d3bd 1889 9d3d 7a34 a3bc
00000260: 3eb2 9e3d d20d a43d 0077 b43d 2501 d33d
00000270: 1433 d03d 655d 17bc c9bc c83c f22c c3bc
00000280: 11a0 b4bb c859 7b3d f966 493d c221 32bd
00000290: d53b d73b 3e49 683d 6ff8 263d a714 6e3d
000002a0: b2ac aa3d 4e62 853d 17ac b63d ae9c 413d
000002b0: 2f6f 79bd 4aed 85bd fc33 49bb caf6 45bd
000002c0: 5227 973c 9688 893d 1220 36bc e09c a53c
000002d0: b3f0 09bd 7480 b2bd b1fa 84bd 4e06 243d
000002e0: ab33 7fbd ef09 a73c a67b 5e3d 5dbf f1bd
000002f0: e0eb bebb a1a9 253c 8e8f aabd f032 b9bd
00000300: 250b 063d 2fb6 98bc 71fa b7bd 3028 88bc
00000310: 730c 503d 4956 cc3d 34f9 c4bd 1bf1 9d3c
00000320: 876f 6fbd 2a57 adbd a3c8 c23c fb68 c939
00000330: fd61 f1bc 8a4a 1fbc 9c37 03bd c84a 833d
00000340: abde bf3c b2dd c03d bd24 883d 1fbb 2f3d
00000350: be7c 6b3d 3c39 a33d 8e2f 7cbd dd81 9c3d
00000360: 2879 7d3b d45a 453d ec46 44bd a86d b03d
00000370: 3731 ff3c fb6c 7a3d 66d7 2e3b 4b28 7e3c
00000380: 1cd0 fc3b 57ca 8ebd 5e1a bd3d 68a4 043d
00000390: 139e a03d 3a5e 0c3d e361 cabc d04d a9bd
000003a0: 691a 5dbd 693c 8a3d e0cc 303d 8e32 d8bd
000003b0: 7acf b1bc 6596 94bc 2df5 cb3d 483b dd3b
000003c0: 81a0 a0bd bf21 46bd 9bcb 99bd 584e 863c
000003d0: 171b 70bd 0ebb 4c3d 6b5c 6bbd 7f12 583d
000003e0: 4e86 52bd dc8f e23c fe84 aabc ead4 ae3b
000003f0: 4532 0ebd 1302 bb3c f37b 14bd efcd d9bc

lstm.weight_hh_l1 f4 [400, 100]
-0.049406677 -0.04628452 -0.07641931 0.104228206 0.07961183 -0.077172674 0.023929033 -0.032611225
0.06419395 0.08621389 -0.03392362 -0.09065736 -0.06913066 -0.055641666 0.017481871 -0.032204755
0.08385297 0.08266427 0.08324347 -0.06333951 -0.10119863 0.037891176 -0.017724378 0.050813857
-0.09472704 0.05105386 -0.07546942 -0.08775503 -0.100780085 0.10563946 0.035189237 -0.011092311
-0.02616145 -0.023226038 -0.039753098 -0.08308126 -0.058743723 -0.053564593 -0.038005427 0.094924174
0.07394217 -0.02254858 -0.0058357688 0.076247856 0.07977511 -0.029124642 0.0821874 0.034138393
-0.056758553 -0.014874264 0.04300855 0.042783726 -0.03213127 -0.0876831 0.08509034 -0.038366564
0.08120877 0.03071549 -0.03163803 -0.02416125 -0.06398287 -0.0064432733 0.032039378 -0.047351282
0.0024589808 -0.02698576 0.106474504 0.015437357 -0.05589242 0.032129977 -0.04954295 0.08282429
0.028973244 -0.03507723 0.003702165 -0.06169297 0.089269176 0.086458355 0.058569632 0.051123586
0.05515612 -0.015277733 0.08910105 0.09253537 -0.07264235 -0.06496579 0.042026304 -0.06867564
-0.10335726 0.050735738 -0.033056755 -0.07638267 -0.096211135 -0.09807397 -0.08749468 0.032251365
-0.030604359 -0.08255593 0.005930603 0.039602 0.051795665 -0.07281867 0.02537048 -0.08157485
0.04232413 0.06056283 0.03838558 0.005717994 -0.072242245 0.052927215 -0.012206596 0.015758764
0.04254771 -0.03486394 -0.018839015 0.052978195 0.060628384 0.058465574 -0.05203333 0.01864289
0.016524235 -0.07607936 0.05722921 0.015461302 0.11435909 -0.0887602 -0.06957035 0.075938314
0.09126598 -0.023129031 0.056736067 -0.05612897 -0.048358195 0.08514083 -0.051966283 0.08288621
-0.10664425 0.03726921 0.016481804 0.08538015 0.0044908538 -0.078855045 0.05130494 0.0002716353
0.024958193 -0.035242204 0.06435889 -0.05414413 -0.074300095 0.025277995 0.044224042 -0.06949195
0.031402443 0.081081696 0.047108375 0.07363621 0.09295183 -0.09028551 0.04555852 -0.0535395
-0.06423566 -0.10300084 -0.02691103 0.08756002 0.09713036 -0.0019469977 -0.0818594 0.048139576
-0.025243968 0.03892269 0.046591964 -0.017929 0.09490385 -0.099862024 0.10028095 -0.09174934
-0.09313373 -0.057981256 -0.09532065 0.03342827 0.027727487 -0.04393687 -0.0011109079 -0.09955264
-0.07087939 0.055881076 0.010200448 -0.054271586 0.057549354 -0.036720805 -0.07104653 0.071480334
8.990533e-05 -0.052740313 0.041195855 -0.042960994 -0.08789384 -0.031092066 0.019536395 0.0001600914
-0.0020067221 -0.0049456526 0.10348239 0.01880689 0.046947375 -0.008756198 -0.0671617 0.09825203
0.07868993 -0.0036820886 -0.09221881 -0.013269723 0.050119277 -0.07610983 0.06705344 0.086942285
0.04995793 0.110052675 -0.037520386 0.079641 0.033880584 0.06556837 -0.014645477 0.022134908
-0.07222563 -0.020709798 -0.0792526 0.025673326 0.003309542 -0.008683677 0.0009920327 0.034314215
-0.07562173 0.018631708 -0.012460504 0.06690075 0.044891067 -0.07946226 -0.08409205 -0.06499222
0.002759727 0.074000135 0.057267584 -0.026075939 -0.035179853 -0.04477629 -0.062120467 -0.023731165
0.013759988 -0.051791064 0.07974134 0.03546529 0.06654878 -0.038823415 -0.049776427 -0.06295983
00000000: a85e 4abd d694 3dbd ba81 9cbd 9975 d53d
00000010: 870b a33d b50c 9ebd d206 c43c 5993 05bd
00000020: 1e78 833d e890 b03d 7ef3 0abd 91aa b9bd
00000030: 6094 8dbd 84e8 63bd 2436 8f3c 22e9 03bd
00000040: 1bbb ab3d e34b a93d 8d7b aa3d 25b8 81bd
00000050: 3a41 cfbd c733 1b3d b732 91bc 3122 503d
00000060: 4000 c2bd da1d 513d b68f 9abd e9b8 b3bd
00000070: ca65 cebd 8059 d83d 9722 103d 86bc 35bc
00000080: 8a50 d6bc 8844 bebc 25d4 22bd 8226 aabd
00000090: 429d 70bd 8c66 5bbd 94ab 1bbd 9b67 c23d
000000a0: fe6e 973d cdb7 b8bc fa39 bfbb d627 9c3d
000000b0: 2261 a33d cd96 eebc de51 a83d b3d4 0b3d
000000c0: a87b 68bd 2fb3 73bc bc29 303d fd3d 2f3d
000000d0: 149c 03bd 3293 b3bd d843 ae3d 4226 1dbd
000000e0: c950 a63d 0d9f fb3c e196 01bd d0ed c5bc
000000f0: 7309 83bd 1822 d3bb b93b 033d 6bf3 41bd
00000100: da26 213b 3e11 ddbc 4e0f da3d f8ec 7c3c
00000110: 73ef 64bd b99a 033d 8ced 4abd c89f a93d
00000120: 4c59 ed3c 24ad 0fbd 06a0 723b c5b1 7cbd
00000130: c2d2 b63d 1411 b13d b6e6 6f3d f766 513d
00000140: 62eb 613d 754f 7abc 9c7a b63d 2f83 bd3d
00000150: 83c5 94bd c90c 85bd c623 2c3d d0a5 8cbd
00000160: f9ac d3bd 47d0 4f3d 8566 07bd 846e 9cbd
00000170: 580a c5bd 01db c8bd 6930 b3bd 021a 043d
00000180: feb5 fabc 1513 a9bd 8155 c23b b535 223d
00000190: b127 543d f421 95bd c1d5 cf3c b710 a7bd
000001a0: 115c 2d3d bb10 783d 333a 1d3d 035e bb3b
000001b0: bef3 93bd 35ca 583d 2dfe 47bc 8618 813c
000001c0: 8246 2e3d 7ecd 0ebd 4754 9abc aaff 583d
000001d0: 7855 783d 9979 6f3d e720 55bd f9b8 983c
000001e0: d55d 873c 7fcf 9bbd 2d69 6a3d 6751 7d3c
000001f0: 1935 ea3d e8c7 b5bd e67a 8ebd 8c85 9b3d
00000200: a8e9 ba3d 1879 bdbc 1464 683d 7ee7 65bd
00000210: 3e13 46bd 515e ae3d 99da 54bd 3fc0 a93d
00000220: 4d68 dabd 99a7 183d d904 873c cadb ae3d
00000230: 0328 933b c17e a1bd 2125 523d 466a 8e39
00000240: 2075 cc3c 215a 10bd 98ce 833d 3cc6 5dbd
00000250: a62a 98bd cc13 cf3c 4524 353d cc51 8ebd
00000260: d99f 003d 290e a63d b6f4 403d 95ce 963d
00000270: 875d be3d 9ce7 b8bd 929b 3a3d 3c4c 5bbd
00000280: fc8d 83bd 1bf2 d2bd 8574 dcbc ab52 b33d
00000290: 48ec c63d 6732 ffba e7a5 a7bd 012e 453d
000002a0: 70cc cebc 666d 1f3d 37d7 3e3d d7df 92bc
000002b0: f35c c23d 7684 ccbd 1960 cd3d 14e7 bbbd
000002c0: e6bc bebd c17d 6dbd 7937 c3bd 15ec 083d
000002d0: c124 e33c 26f7 33bd e29b 91ba 41e2 cbbd
000002e0: 3729 91bd 8ee3 643d c81f 273c e24b 5ebd
000002f0: dfb8 6b3d 8e68 16bd d880 91bd 4864 923d
00000300: 8e8b bc38 3a06 58bd fcbc 283d def7 2fbd
00000310: b001 b4bd cab4 febc ca0a a03c 35de 2739
00000320: 3683 03bb 240f a2bb 93ee d33d e810 9a3c
00000330: e44b 403d 2876 0fbc 138c 89bd 5c38 c93d
00000340: 3028 a13d 324f 71bb 37dd bcbd 4169 59bc
00000350: df49 4d3d 78df 9bbd 5053 893d cc0e b23d
00000360: b0a0 4c3d 4c63 e13d faae 19bd d21a a33d
00000370: 5ec6 0a3d b648 863d 95f3 6fbc 4454 b53c
00000380: 08eb 93bd 98a7 a9bc 304f a2bd de50 d23c
00000390: e7e4 583b fb45 0ebc 1807 823a 108d 0c3d
000003a0: 91df 9abd 86a1 983c 2427 4cbc 4303 893d
000003b0: b2df 373d 1cbd a2bd 7438 acbd a41a 85bd
000003c0: 89dc 343b 628d 973d 6a91 6a3d 359d d5bc
000003d0: c018 10bd 5867 37bd 0872 7ebd dc67 c2bc
000003e0: 9371 613c de22 54bd 6d4f a33d 0d44 113d
000003f0: ba4a 883d 4d05 1fbd 5ee2 4bbd 15f1 80bd

lstm.bias_ih_l1 f4 [400]
-0.010946458 0.049724273 -0.08936399 -0.038033783 -0.091640376 -0.012712931 -0.033109844 0.050434723
0.095326275 -0.025052179 0.08744386 -0.07022735 0.05048183 -0.09916788 -0.057104453 0.07736477
-0.05009229 0.05714795 -0.089887105 0.04247912 0.010000412 -0.005315085 0.079517685 0.07745906
0.021397265 0.05601734 -0.024160534 -0.014295667 0.039807793 0.076017685 -0.033473466 0.050667007
-0.07818766 0.03765846 -0.048348427 0.057067625 -0.118375346 0.07531519 -0.06457053 -0.021681266
-0.05717598 -0.028841713 -0.05366499 0.048971277 -0.08247637 -0.012089171 -0.011257079 -0.08551716
0.09185405 0.08807896 -0.036872603 0.090863034 -0.05314983 -0.045108892 0.016818283 0.03973525
0.025266603 -0.056163386 0.0057165967 0.005512506 0.0015850432 -0.08489879 -0.049630944 0.046432614
-0.015636439 0.060184784 -0.032419194 -0.05328448 -0.08463483 0.005081342 -0.046323944 -0.085108526
-0.05017283 -0.05268246 0.053276725 0.07036875 0.008147221 0.017423907 0.032907475 0.08870299
-0.043642465 0.018246105 0.060514674 -0.08349367 0.10701699 0.006482146 0.018211499 0.012619602
0.010481657 -0.08926729 -0.025240608 -0.026239349 0.08349592 -0.06860278 -0.0024680095 -0.03830644
-0.09093887 -0.050933536 0.09561537 -0.090074256 0.059459876 0.045016192 0.019769121 0.0514379
0.09588714 -0.04536842 0.06983509 -0.07767358 0.065163784 0.025587233 -0.087334916 -0.03537591
-0.0023384565 -0.11067856 -0.0058204466 -0.0364831 0.06382937 0.05308916 0.10551348 -0.04339523
-0.07482803 -0.025809908 -0.025172103 -0.02270835 -0.09232805 -0.032668903 0.040815197 -0.10220174
-0.023629416 -0.03218996 0.110489994 0.0059873196 -0.012431113 -0.000759734 0.031537943 -0.09650023
-0.070766896 0.013473482 -0.075604625 0.0042517753 -0.070810065 -0.08161294 -0.06700053 0.019035572
0.028557295 -0.08993339 -0.001944432 -0.017195372 0.040358238 0.065597296 -0.026446294 0.011600945
-0.054369505 0.041198358 -0.027394664 -0.057336137 -0.07288017 -0.0109652355 -0.08334548 0.036427904
0.028770348 0.06098818 0.07905033 0.011727357 0.01965716 -0.066190235 -0.07727592 0.040991243
-0.07658717 -0.04426572 -0.022682203 -0.0577092 -0.06108662 0.09112282 -0.0035308045 0.05540899
0.088137396 -0.016028587 0.00474035 -0.062220845 0.028797679 0.09170991 -0.045129076 -0.033893712
0.10484901 -0.057923384 -0.070775375 -0.004731857 -0.056401234 0.02160034 0.093328625 -0.017495625
-0.097256 -0.09240727 -0.08616906 0.016913747 0.05776739 0.001557428 -0.09507028 0.013423181
0.0029819906 -0.09595583 -0.06706912 -0.05238225 -0.09917979 -0.023396596 -0.041153602 0.03628181
0.043387417 -0.07764143 -0.07935946 -0.019060055 -0.04117117 -0.03891954 0.07017347 0.097793594
-0.00724748 -0.065475315 -0.07310923 -0.02384973 0.02066558 0.024613233 -0.03482932 -0.017903624
0.07633718 0.019947806 -0.014844891 -0.06285462 0.02639691 -0.074989885 -0.034495965 -0.10955301
-0.08175232 0.10551597 0.06640418 0.06346067 -0.04825576 0.022862118 -0.032064468 0.06454463
0.017973496 0.03135539 0.049837228 0.0010441055 -0.042515952 -0.07624066 0.069949515 0.09962106
0.101220064 -0.018776122 -0.07974891 -0.067706496 -0.0150757 -0.0034457452 0.006153894 0.017838353
00000000: c658 33bc aeab 4b3d 7804 b7bd 50c9 1bbd
00000010: f3ad bbbd e649 50bc 309e 07bd a494 4e3d
00000020: 6c3a c33d 3a3a cdbc c415 b33d 5bd3 8fbd
00000030: 09c6 4e3d 8818 cbbd 5ce6 69bd 6c71 9e3d
00000040: 932d 4dbd f813 6a3d bb16 b8bd 96fe 2d3d
00000050: c5d8 233c 2a2a aebb 2bda a23d dba2 9e3d
00000060: 5149 af3c 7072 653d 50ec c5bc 6038 6abc
00000070: 7f0d 233d 29af 9b3d 791b 09bd 3588 4f3d
00000080: da20 a0bd c23f 1a3d 0009 46bd bebf 693d
00000090: c66e f2bd da3e 9a3d 8e3d 84bd e99c b1bc
000000a0: 5c31 6abd 7545 ecbc d2cf 5bbd 1b96 483d
000000b0: 5fe9 a8bd a911 46bc 9d6f 38bc 9f23 afbd
000000c0: fa1d bc3d be62 b43d ba07 17bd 6616 ba3d
000000d0: a3b3 59bd 1ac4 38bd 7fc6 893c 6ec1 223d
000000e0: e8fb ce3c 940b 66bd 4a52 bb3b 40a2 b43b
000000f0: 39c1 cf3a 6bdf adbd d149 4bbd 2030 3e3d
00000100: fd17 80bc 5284 763d fdc9 04bd d440 5abd
00000110: 0755 adbd 6381 a63b 2dbe 3dbd 614d aebd
00000120: 0682 4dbd 90c9 57bd b238 5a3d 7e1d 903d
00000130: ec7b 053c 95bc 8e3c fdc9 063d eaa9 b53d
00000140: 71c2 32bd db78 953c 3cde 773d bbfe aabd
00000150: b92b db3d 2f68 d43b 4830 953c 72c2 4e3c
00000160: 42bb 2b3c c5d1 b6bd 64c5 cebc e7f3 d6bc
00000170: e9ff aa3d 9d7f 8cbd 54be 21bb 37e7 1cbd
00000180: 293e babd af9f 50bd fed1 c33d da78 b8bd
00000190: 338c 733d e662 383d daf2 a13c 8cb0 523d
000001a0: 7a60 c43d 3dd4 39bd b305 8f3d 5313 9fbd
000001b0: 9774 853d 519c d13c a6dc b2bd 55e6 10bd
000001c0: ca40 19bb 71ab e2bd 72b9 bebb 4e6f 15bd
000001d0: f9b8 823d 0574 593d 7417 d83d 32bf 31bd
000001e0: 703f 99bd 4d6f d3bc ba35 cebc dd06 babc
000001f0: 7d16 bdbd d4cf 05bd d62d 273d 254f d1bd
00000200: 7a92 c1bc 9fd9 03bd 9448 e23d 4731 c43b
00000210: deab 4bbc e328 47ba ee2d 013d eaa1 c5bd
00000220: 3cee 90bd e1bf 5c3c 99d6 9abd 7a52 8b3b
00000230: de04 91bd af24 a7bd 9337 89bd 7df0 9b3c
00000240: fdf0 e93c ff2e b8bd 50dc feba 4fdd 8cbc
00000250: ae4e 253d e057 863d e6a5 d8bc e411 3e3c
00000260: 8fb2 5ebd 9cbf 283d c66a e0bc 4cd9 6abd
00000270: 3342 95bd 88a7 33bc 09b1 aabd 6d35 153d
00000280: cbaf eb3c bece 793d 24e5 a13d 1a24 403c
00000290: 0d08 a13c bf8e 87bd d642 9ebd 6fe6 273d
000002a0: bcd9 9cbd f94f 35bd 07d0 b9bc 7b60 6cbd
000002b0: f735 7abd 9a9e ba3d 1265 67bb 89f4 623d
000002c0: 6181 b43d 624e 83bc f054 9b3b 49db 7ebd
000002d0: 1ce9 eb3c 68d2 bb3d 44d9 38bd 22d4 0abd
000002e0: 14bb d63d 1241 6dbd aef2 90bd b20d 9bbb
000002f0: fb04 67bd 32f3 b03c 1423 bf3d fc52 8fbc
00000300: 272e c7bd 0640 bdbd 6779 b0bd b38e 8a3c
00000310: 809d 6c3d 9d22 cc3a 35b4 c2bd e7ec 5b3c
00000320: 806d 433b 7d84 c4bd 895b 89bd c58e 56bd
00000330: c61e cbbd 38aa bfbc ae90 28bd 3c9c 143d
00000340: 01b7 313d 7802 9fbd 3687 a2bd d523 9cbc
00000350: 1aa3 28bd 186a 1fbd 1cb7 8f3d 0248 c83d
00000360: 457c edbb ec17 86bd 4bba 95bd 8260 c3bc
00000370: dd4a a93c b1a1 c93c 30a9 0ebd 9faa 92bc
00000380: ab56 9c3d 9569 a33c fc37 73bc ecb9 80bd
00000390: 553e d83c 4c94 99bd a44b 0dbd 545d e0bd
000003a0: c36d a7bd c218 d83d eafe 873d abf7 813d
000003b0: d5a7 45bd 5649 bb3c 0856 03bd fa2f 843d
000003c0: 273d 933c 826e 003d 1f22 4c3d 5eda 883a
000003d0: 3525 2ebd 1024 9cbd b141 8f3d 2006 cc3d
000003e0: 774c cf3d 62d0 99bc 6653 a3bd b4a9 8abd
000003f0: 1200 77bc 03d2 61bb 9ba6 c93b bd21 923c
